datos.pth (torch, 6209 bytes, 6 tensors)

l1.weight f4 [8, 70]
00000000: 4f6b c73d c9bf b83e 8fcf 0c3f 291e f43e
00000010: e078 74be d8ed c73e fb22 be3e ac0c f5be
00000020: 7ac5 113f 4128 1c3f 866a 013f 69f1 fabe
00000030: 45d2 fb3e 774f b4be 9f24 15bf 7c8c dabe
00000040: 00c8 0a3f 2185 a4be 5856 ebbe 25d8 0b3e
00000050: d592 d33e 06f1 173f 62d3 9e3e 274a 04bf
00000060: 77bc 033f 4fbf 023f 8859 263f e6f0 a2be
00000070: f568 85be b5d0 02bf 3b82 9dbe 813b ed3e
00000080: 0c43 08bc 4725 443f 2ce7 5ebd 111f 193f
00000090: ab70 dc3e 810f 303e 79c6 d53e 1dd7 1c3e
000000a0: b3f1 e73d 6b49 1ebf b193 223f 0c4c 353f
000000b0: b79a 083f 4472 303f c26a 8fbe 9366 203f
000000c0: fe12 5bbe dade e9be 5a8d 373f 6532 d03e
000000d0: 757a fb3e 843f 98be c363 8ebe 4fa1 3cbe
000000e0: 0939 063f adad 943e af08 023f e522 013f
000000f0: 047a 64bf 5419 a8be f417 c33e fe23 f03e
00000100: e4a9 183f 1db8 0d3f f3b1 1b3e 909e 173f
00000110: f1be fe3e 109f 933d a414 71be 55fd bdbd
00000120: 9d08 4cbe eaed 29be cd2b 7ebd e01f 293e
00000130: 8f4b f43d ab1e 0d3f dd9c 8abe fe62 08bf
00000140: 626d 023f c645 1c3f 39b4 4ebe 28ec e53e
00000150: a29a 89be 4021 033f 5b1e 21be f95e 44be
00000160: 40d0 133f 986f 5e3e addb 793e 1755 22be
00000170: 8b4d 27bf 78c3 093f 8306 68be 05fb 513e
00000180: 081e 573e 7d3d 903e c2b9 293f 9388 273f
00000190: 3601 763f 7efa 5bbd c27a e1bd 8921 dbbe
000001a0: e818 4c3f 220d c3bd 972b 923e e9ab 28be
000001b0: 6e30 df3e 6284 bdbd 836c 423e df10 2a3e
000001c0: 9ff5 473e 5f5f 30be 3ba4 e6be a36f cdbe
000001d0: c314 a03e d7de 293f 98eb a8bd 1192 83be
000001e0: b6a9 b6be b5d4 c63e 46f7 843e cfc9 a53e
000001f0: 5181 ee3e 19d4 06bf 19fc a0be 2f8a ac3e
00000200: db5a 813d e541 b0be 7b52 0a3f c75c 1d3f
00000210: e296 e93e 67a7 a7bd 41eb b3be 6439 33be
00000220: 3b41 7a3e f0ec b3be 9548 2dbe 1a4b 653e
00000230: 880d dfbe 66ad b03e fdce 8bbe 40b0 d63e
00000240: db78 77be dc5f 063f ea06 e63e 0783 edbe
00000250: ff6f d73e 653d 10bf 0306 033f f5dc 09be
00000260: d674 153f 2af5 703d 0507 a2be bcbc 123f
00000270: 31b0 e73e 118c a9be cec2 51be dcb3 34be
00000280: a1b8 793e a0b7 fabd 0746 4cbf 5cc9 26bf
00000290: 17aa 0a3f 869e d83e 7977 403f c920 c53e
000002a0: cc1f 7f3b 9e11 8a3e 7e46 1ebf 752a 81bd
000002b0: 20fe 38be 4ab8 653f 6149 e53e 84e0 bfbd
000002c0: fe88 903e 3ef5 89be 7871 013f b98b 053e
000002d0: 9348 863e 91f8 febe 2cbd 123f 6b11 183f
000002e0: 60cf 19be fe6d 26be 21eb e33e 9d0e e43e
000002f0: 2729 34be ceb3 06bf d3e6 323f a510 b23e
00000300: 67f3 263e 573f 8a3e 5ba5 01be b44d 29bf
00000310: d726 2ebe 80f9 063d 2886 023f 6f6f 39be
00000320: 261f 9a3e 3c67 983b 6e5c 793e 37d4 b9bd
00000330: d5bf 98be 8e98 90be 5a15 b4bd 3cc9 98be
00000340: f046 fe3e 44dc 72be 2604 e2be 17ba 3dbe
00000350: c6ab 5fbe 122f 10be 9831 4abe 2f08 39be
00000360: 1fcb f0bd 99bb 2c3f d415 62be fe12 0abf
00000370: 7427 293f 2b1b 1f3f b00d 75be dce9 083f
00000380: e360 b3be 2e92 093f bed3 8cbe f4b8 39be
00000390: 5e87 263f 0e6b 403e a560 873e 8ae9 4e3d
000003a0: 552e 31bf f173 f33e b458 83be e8fa a73d
000003b0: c983 86be aced cb3e 81ef 1b3f a542 f63e
000003c0: 9546 343f 9af7 27be 3bf2 63be 3fd3 fdbe
000003d0: 0942 473f a01b 03be caeb 843e d048 86be
000003e0: 8cdb bb3e 8b8e ec3d 801e 0a3e b1fe 2b3f
000003f0: bfe6 ddbd 36f3 efbe 91c4 bdbe e3d6 b2be
0.09737264 0.3608382 0.5500421 0.4767926 -0.23874235 0.39048648 0.37136063 -0.4786123
0.5694195 0.6099892 0.50553167 -0.49012306 0.4918386 -0.35216877 -0.58259004 -0.42685306
0.54211426 -0.3213282 -0.45964313 0.13656671 0.4132296 0.5935215 0.31020647 -0.5167565
0.5145945 0.51073164 0.64980364 -0.31824416 -0.26056638 -0.5109971 -0.3076342 0.4633446
-0.0083167665 0.7661938 -0.05441968 0.5981303 0.4305471 0.17193414 0.41752985 0.15316434
0.11325397 -0.61830777 0.6350661 0.70819163 0.53361076 0.68924356 -0.28011137 0.62656516
-0.21393964 -0.45677835 0.7170006 0.40663448 0.49116865 -0.2973596 -0.27810487 -0.1842091
0.5243078 0.29038754 0.507945 0.5044387 -0.8924868 -0.32831824 0.38104212 0.4690246
0.5963423 0.5535906 0.15204601 0.5922632 0.49755052 0.07208073 -0.2354303 -0.09276835
-0.1992516 -0.16594663 -0.06205349 0.16516066 0.11928474 0.5512492 -0.27072802 -0.5327605
0.50948155 0.61043966 -0.20185937 0.44906735 -0.26875788 0.5122261 -0.15734236 -0.19176854
0.5773964 0.21722257 0.24400206 -0.15852772 -0.65352696 0.53813887 -0.22658734 0.20505913
0.2100755 0.28171912 0.6629907 0.6544277 0.960956 -0.053705685 -0.11009742 -0.42799023
0.79725504 -0.09523989 0.2854888 -0.16471829 0.43591636 -0.09253766 0.18986706 0.16607998
0.19527291 -0.17223881 -0.45047173 -0.40124235 0.3126584 0.6635565 -0.08248061 -0.25697377
-0.35676354 0.38834158 0.25969905 0.3238053 0.46583036 -0.52667385 -0.31442335 0.33699176
0.063161574 -0.34425274 0.54032105 0.6146969 0.45622927 -0.08186226 -0.35140422 -0.17502362
0.24438946 -0.35141706 -0.16922219 0.2239193 -0.4356501 0.34507293 -0.27306357 0.41931343
-0.24167196 0.5249002 0.4492715 -0.46389028 0.42077634 -0.5634368 0.5118105 -0.13463195
0.583814 0.058827557 -0.3164598 0.57319236 0.4525161 -0.33114675 -0.20484468 -0.17646736
0.24386837 -0.12242055 -0.79794353 -0.65151 0.54165787 0.42308444 0.751823 0.38501576
0.0038928865 0.26966566 -0.6182631 -0.06306926 -0.18065691 0.8973433 0.44782546 -0.09368995
0.28229517 -0.26944917 0.50563765 0.13041581 0.26227245 -0.49799016 0.57319903 0.5940158
-0.15020514 -0.16252896 0.44515327 0.445424 -0.17593823 -0.5261811 0.6988346 0.34778324
0.16303788 0.2700145 -0.12660734 -0.6613419 -0.17007004 0.032952785 0.50985956 -0.18108915
0.3010189 0.0046509784 0.24351665 -0.0907368 -0.29833856 -0.2824139 -0.08793135 -0.2984103
0.49663496 -0.23716837 -0.4414379 -0.18528019 -0.2184287 -0.14080456 -0.19745481 -0.18069528
-0.11757492 0.6747375 -0.2207864 -0.5393523 0.66075826 0.6215083 -0.23931003 0.5348184
-0.35034856 0.5373868 -0.27505296 -0.1813696 0.65050304 0.18790838 0.2644092 0.05051569
-0.6921132 0.47549394 -0.25653613 0.082021534 -0.2627242 0.39829767 0.6091233 0.4809772
0.704202 -0.16403046 -0.22260372 -0.4957523 0.77835137 -0.12803507 0.25961143 -0.26227427
0.36690938 0.115506254 0.13488197 0.67185503 -0.10835027 -0.46865243 -0.3706403 -0.3492957

l1.bias f4 [8]
00000000: f1fe 633f 1f1c db3e a847 1e3f 33d2 fd3e
00000010: 6f2e 6e3f 0e0e 5f3f d416 453f fbd2 4d3f
0.89060885 0.42794892 0.6182809 0.49574432 0.930396 0.8713082 0.7698796 0.80400056

l2.weight f4 [8, 8]
00000000: 5fd1 70be 1fa6 c93f e6af 3a3f 92c0 d33f
00000010: 4783 9abd 4e95 dd3e 789d b8bc 7c52 27bf
00000020: 315a 913f 6078 96be 74f8 ebbf d772 f0be
00000030: 4a03 9b3f 8a1f 5f3f 33a8 81bf a563 803f
00000040: ae2f 16be d74a a43e ba8d 3bbf efa4 753f
00000050: 723f a5bf d074 913f bd7c 963f 62aa a3bd
00000060: 0506 bc3f 0db1 64bf 2eb3 703f fdde 5cbf
00000070: 315a acbf 5feb 8c3f 0433 a03f 5d51 e23f
00000080: bac0 ac3f f056 333f 8648 a03f d344 d33e
00000090: fb27 463f f2aa 053e d47a 593f 5642 7ebf
000000a0: c83c f6be 2b85 4f3f 36cb eabe 36c0 ab3f
000000b0: bb8b bebe fadd b53f ba7f a63e 014e 163e
000000c0: 88c6 56bf a4e8 a13d 501b 5fbf ed9a e53e
000000d0: 1f4f af3f 54cd 533f 6c3b 9ebf cec0 7a3f
000000e0: 1ec8 073b 0274 ed3d 4430 583f cd4f 943e
000000f0: 01b8 6f3f 86cb e3bd a37d 943f 6e46 e2bf
-0.23517369 1.5753821 0.7292465 1.6543143 -0.075445704 0.43277973 -0.022536024 -0.65360236
1.1355649 -0.29388714 -1.8435197 -0.46962616 1.2110379 0.871575 -1.0129455 1.0030409
-0.14666626 0.32088348 -0.7326313 0.95954794 -1.2909987 1.1363773 1.1756817 -0.07991482
1.4689337 -0.8933266 0.94023407 -0.86277753 -1.3465024 1.100933 1.2515569 1.768108
1.3496315 0.7005453 1.2522132 0.41263446 0.77404755 0.13053492 0.84953046 -0.9931997
-0.48093247 0.81062573 -0.45858163 1.3418033 -0.3721598 1.4208367 0.32519323 0.14678194
-0.83896685 0.07905701 -0.8715105 0.44844761 1.3696021 0.8273518 -1.2361884 0.97950447
0.0020718644 0.11594392 0.8444865 0.28967133 0.9364014 -0.111228034 1.1600841 -1.7677743

l2.bias f4 [8]
00000000: d255 28bc 77cd 433e c430 a8bd c94b 143f
00000010: f8bf b73e 98fa c6bd 1a14 763f 4558 fdbd
-0.010274367 0.19121347 -0.08212426 0.5792814 0.35888648 -0.09715766 0.9612442 -0.12370352

l3.weight f4 [11, 8]
00000000: 0669 cdbf f0b8 e03e 5b62 f7be 4ad2 b5bf
00000010: ea7a ce3e c90a c1bf 167b 263f 1784 233f
00000020: 8257 d4bf fa4d 00bf d3e3 3b3f 3d1b 063f
00000030: 930f e6be 2044 dbbb 64c7 81bf 4116 a2be
00000040: 5732 383f 6b0f e6bf 1186 b83d c9e8 96bf
00000050: 86ba 40be 4366 123f 198a 243e 8b88 2cbf
00000060: fb5a 433e 5e79 5a3e 9cfa eebe c605 a5bf
00000070: ec56 a3be 5df8 bc3e edde f73e d2e9 aabf
00000080: 68d5 83bf b049 e83e c521 38bf eeba 053f
00000090: fe53 95bf 249a 2bbe 54d2 433d 0c95 55bf
000000a0: 79e7 6d3e b6e3 abbf 4ad8 a1bf 27d0 d6bd
000000b0: df9d 543f d75a d4bf 4a2b 4bbf 71ff 213f
000000c0: c175 67be 1638 11bf c1cd ae3e 5a13 753d
000000d0: 0565 7ebf 109e 153f e450 963e 2239 c6bf
000000e0: 0d4e 913e 47a4 ecbf e580 943e b0a7 f83c
000000f0: d77f 6f3e b9c3 083e 8a29 90bf 0055 35bf
00000100: a4cf 7fbf 739a 073f cdba dbbf b8d0 32be
00000110: 70f7 c4bf cdd5 e0bf 27c2 8e3f ff21 bcbf
00000120: 65e6 9abf b86e 80bf 46f4 d4bf 3e20 803f
00000130: c15d 043f 003c c3bf 8822 13bf bc75 bebf
00000140: 835d d73e f16d 65bf 9362 3bbc a954 8fbf
00000150: 720f c33e 9e20 183d c0c6 8cbf 90b5 623f
-1.6047676 0.43891096 -0.48317227 -1.42048 0.4032815 -1.5081416 0.65031564 0.6387343
-1.6589205 -0.5011898 0.7339451 0.5238531 -0.44933757 -0.0066914707 -1.0138974 -0.31657603
0.7195181 -1.7973455 0.09009946 -1.178979 -0.18821153 0.5718729 0.16068305 -0.6739585
0.19077675 0.2133536 -0.46675575 -1.2892387 -0.31902254 0.36908236 0.48412266 -1.3352606
-1.0299501 0.4536872 -0.7192653 0.5223836 -1.1666257 -0.16758019 0.047808006 -0.8343055
0.23232831 -1.3428867 -1.2644131 -0.10488921 0.8305339 -1.6590222 -0.7936293 0.632804
-0.22603513 -0.56726205 0.34141353 0.05983291 -0.99372894 0.5844431 0.2935859 -1.5486186
0.2837986 -1.8487633 0.2900459 0.030353397 0.23388611 0.13355912 -1.1262677 -0.70832825
-0.9992621 0.52970046 -1.7166382 -0.17462432 -1.5388012 -1.7565247 1.1153 -1.4697875
-1.2101561 -1.0033789 -1.6637046 1.000984 0.5170556 -1.5252686 -0.57474566 -1.487968
0.4206353 -0.8962088 -0.011437076 -1.1197711 0.3809772 0.03714048 -1.0998154 0.8855829

l3.bias f4 [11]
00000000: cc5a e33e 18f6 09be 0c3e 163c 3afa f4bc
00000010: edd1 05bf d68a 1e3e ef70 97be 1f60 7bbe
00000020: 411d 5b3e f0be 593e 439d 29be
0.4440521 -0.13472784 0.009170067 -0.029904474 -0.52273446 0.15482649 -0.2957835 -0.24548386
0.21397878 0.21264243 -0.16563897
